…
2024-03-07 07:42:22,310 INFO    MainThread:19198 [wandb_init.py:_log_setup():525] Logging internal logs to /Users/arun/Documents/personal/practice_deep_learning/nbs/wandb/run-20240307_074222-5sg72do4/logs/debug-internal.log
2024-03-07 07:42:22,310 INFO    MainThread:19198 [wandb_init.py:_jupyter_setup():470] configuring jupyter hooks <wandb.sdk.wandb_init._WandbInit object at 0x7fb6980a2e80>
2024-03-07 07:42:22,312 INFO    MainThread:19198 [wandb_init.py:init():564] calling init triggers
2024-03-07 07:42:22,313 INFO    MainThread:19198 [wandb_init.py:init():571] wandb.init called with sweep_config: {}
config: {'batch_size': 1024, 'learning_rate': 0.001, 'architecture': 'CNN', 'dataset': 'MNIST', 'epochs': 20, 'total_params': '0.02M', 'model': VAE(
  (encoder): Sequential(
    (0): Conv2d(1, 16, kernel_size=(1, 1), stride=(1, 1))
    (1): BatchNorm2d(16, eps=1e-05, momentum=0.1, affine=True, track_running_stats=True)
    (2): ReLU(inplace=True)
    (3): Conv2d(16, 16, kernel_size=(5, 5), stride=(1, 1))
    (4): BatchNorm2d(16, eps=1e-05, momentum=0.1, affine=True, track_running_stats=True)
    (5): ReLU(inplace=True)
    (6): Conv2d(16, 16, kernel_size=(5, 5), stride=(1, 1))
    (7): BatchNorm2d(16, eps=1e-05, momentum=0.1, affine=True, track_running_stats=True)
    (8): ReLU(inplace=True)
    (9): Conv2d(16, 16, kernel_size=(4, 4), stride=(2, 2))
    (10): BatchNorm2d(16, eps=1e-05, momentum=0.1, affine=True, track_running_stats=True)
    (11): ReLU(inplace=True)
    (12): Conv2d(16, 16, kernel_size=(3, 3), stride=(2, 2))
    (13): BatchNorm2d(16, eps=1e-05, momentum=0.1, affine=True, track_running_stats=True)
    (14): ReLU(inplace=True)
    (15): Conv2d(16, 64, kernel_size=(4, 4), stride=(1, 1))
  )
  (decoder): Sequential(
    (0): ConvTranspose2d(32, 16, kernel_size=(4, 4), stride=(1, 1))
    (1): BatchNorm2d(16, eps=1e-05, momentum=0.1, affine=True, track_running_stats=True)
    (2): ReLU(inplace=True)
    (3): ConvTranspose2d(16, 16, kernel_size=(3, 3), stride=(2, 2))
    (4): BatchNorm2d(16, eps=1e-05, momentum=0.1, affine=True, track_running_stats=True)
    (5): ReLU(inplace=True)
    (6): ConvTranspose2d(16, 16, kernel_size=(4, 4), stride=(2, 2))
    (7): BatchNorm2d(16, eps=1e-05, momentum=0.1, affine=True, track_running_stats=True)
    (8): ReLU(inplace=True)
    (9): ConvTranspose2d(16, 16, kernel_size=(5, 5), stride=(1, 1))
    (10): BatchNorm2d(16, eps=1e-05, momentum=0.1, affine=True, track_running_stats=True)
    (11): ReLU(inplace=True)
    (12): ConvTranspose2d(16, 1, kernel_size=(5, 5), stride=(1, 1))
    (13): Sigmoid()
  )
)}
2024-03-07 07:42:22,315 INFO    MainThread:19198 [wandb_init.py:init():614] starting backend
2024-03-07 07:42:22,315 INFO    MainThread:19198 [wandb_init.py:init():618] setting up manager
2024-03-07 07:42:22,317 INFO    MainThread:19198 [backend.py:_multiprocessing_setup():105] multiprocessing start_methods=spawn,fork,forkserver, using: spawn
…
